(DATA) frimann@Drungi:~/Dropbox/2017 haust - Tölvunarfræði HR/DATA/Project/Final Project% python3 NNChess-V2.py
Using TensorFlow backend.
2017-11-04 16:24:57.108452: I tensorflow/core/platform/cpu_feature_guard.cc:137] Your CPU supports instructions that this TensorFlow binary was not compiled to use: SSE4.1 SSE4.2 AVX
_________________________________________________________________
Layer (type)                 Output Shape              Param #
=================================================================
dense_1 (Dense)              (None, 2048)              1574912
_________________________________________________________________
activation_1 (Activation)    (None, 2048)              0
_________________________________________________________________
dropout_1 (Dropout)          (None, 2048)              0
_________________________________________________________________
dense_2 (Dense)              (None, 2048)              4196352
_________________________________________________________________
activation_2 (Activation)    (None, 2048)              0
_________________________________________________________________
dropout_2 (Dropout)          (None, 2048)              0
_________________________________________________________________
dense_3 (Dense)              (None, 2048)              4196352
_________________________________________________________________
activation_3 (Activation)    (None, 2048)              0
_________________________________________________________________
dense_4 (Dense)              (None, 1)                 2049
=================================================================
Total params: 9,969,665
Trainable params: 9,969,665
Non-trainable params: 0
_________________________________________________________________
Loading testdata  standar
done loading:  data/standar.data

Loading blitzz
done loading:  data/blitzz.data

Fitting blitzz
Epoch 1/10
  6496/629673 [..............................] - ETA: 49:29 - loss: 40.4356^CTraceback (most recent call last):
…
  File "/Volumes/Fatboy/Users/frimann/.virtualenvs/DATA/lib/python3.5/site-packages/tensorflow/python/client/session.py", line 1302, in _run_fn
    status, run_metadata)
KeyboardInterrupt
(DATA) frimann@Drungi:~/Dropbox/2017 haust - Tölvunarfræði HR/DATA/Project/Final Project% python3 NNChess-V2.py
Using TensorFlow backend.
2017-11-04 16:27:38.915484: I tensorflow/core/platform/cpu_feature_guard.cc:137] Your CPU supports instructions that this TensorFlow binary was not compiled to use: SSE4.1 SSE4.2 AVX
_________________________________________________________________
Layer (type)                 Output Shape              Param #
=================================================================
dense_1 (Dense)              (None, 512)               393728
_________________________________________________________________
activation_1 (Activation)    (None, 512)               0
_________________________________________________________________
dropout_1 (Dropout)          (None, 512)               0
_________________________________________________________________
dense_2 (Dense)              (None, 512)               262656
_________________________________________________________________
activation_2 (Activation)    (None, 512)               0
_________________________________________________________________
dropout_2 (Dropout)          (None, 512)               0
_________________________________________________________________
dense_3 (Dense)              (None, 512)               262656
_________________________________________________________________
activation_3 (Activation)    (None, 512)               0
_________________________________________________________________
dense_4 (Dense)              (None, 1)                 513
=================================================================
Total params: 919,553
Trainable params: 919,553
Non-trainable params: 0
_________________________________________________________________
Loading testdata  standar
done loading:  data/standar.data

Loading blitzz
done loading:  data/blitzz.data

Fitting blitzz
Epoch 1/10
629673/629673 [==============================] - 205s 326us/step - loss: 30.0655
…
